…
u'),\n    layers.MaxPooling2D((2, 2)),\n\n    # Fully connected layers\n    layers.Flatten(),\n    layers.Dense(256, activation='relu'),\n    layers.Dropout(0.2),\n    layers.Dense(1, activation='sigmoid')  # Binary classification\n])\n\nmodel2.summary()\n\nModel: \"sequential_1\"\n\n\n\n┏━━━━━━━━━━━━━━━━━━━━━━━━━━━━━━━━━━━━━━┳━━━━━━━━━━━━━━━━━━━━━━━━━━━━━┳━━━━━━━━━━━━━━━━━┓\n┃ Layer (type)                         ┃ Output Shape                ┃         Param # ┃\n┡━━━━━━━━━━━━━━━━━━━━━━━━━━━━━━━━━━━━━━╇━━━━━━━━━━━━━━━━━━━━━━━━━━━━━╇━━━━━━━━━━━━━━━━━┩\n│ random_flip_1 (RandomFlip)           │ (None, 150, 150, 3)         │               0 │\n├──────────────────────────────────────┼─────────────────────────────┼─────────────────┤\n│ random_rotation_1 (RandomRotation)   │ (None, 150, 150, 3)         │               0 │\n├──────────────────────────────────────┼─────────────────────────────┼─────────────────┤\n│ conv2d_3 (Conv2D)                    │ (None, 148, 148, 32)        │             896 │\n├──────────────────────────────────────┼─────────────────────────────┼─────────────────┤\n│ max_pooling2d_3 (MaxPooling2D)       │ (None, 74, 74, 32)          │               0 │\n├──────────────────────────────────────┼─────────────────────────────┼─────────────────┤\n│ conv2d_4 (Conv2D)                    │ (None, 72, 72, 64)          │          18,496 │\n├──────────────────────────────────────┼─────────────────────────────┼─────────────────┤\n│ max_pooling2d_4 (MaxPooling2D)       │ (None, 36, 36, 64)          │               0 │\n├──────────────────────────────────────┼─────────────────────────────┼─────────────────┤\n│ conv2d_5 (Conv2D)                    │ (None, 34, 34, 128)         │          73,856 │\n├──────────────────────────────────────┼─────────────────────────────┼─────────────────┤\n│ max_pooling2d_5 (MaxPooling2D)       │ (None, 17, 17, 128)         │               0 │\n├──────────────────────────────────────┼─────────────────────────────┼─────────────────┤\n│ conv2d_6 (Conv2D)                    │ (None, 15, 15, 256)         │         295,168 │\n├──────────────────────────────────────┼─────────────────────────────┼─────────────────┤\n│ max_pooling2d_6 (MaxPooling2D)       │ (None, 7, 7, 256)           │               0 │\n├──────────────────────────────────────┼─────────────────────────────┼─────────────────┤\n│ flatten_1 (Flatten)                  │ (None, 12544)               │               0 │\n├──────────────────────────────────────┼─────────────────────────────┼─────────────────┤\n│ dense_2 (Dense)                      │ (None, 256)                 │       3,211,520 │\n├──────────────────────────────────────┼─────────────────────────────┼─────────────────┤\n│ dropout_1 (Dropout)                  │ (None, 256)                 │               0 │\n├──────────────────────────────────────┼─────────────────────────────┼─────────────────┤\n│ dense_3 (Dense)                      │ (None, 1)                   │             257 │\n└──────────────────────────────────────┴─────────────────────────────┴─────────────────┘\n\n\n\n Total params: 3,600,193 (13.73 MB)\n\n\n\n Trainable params: 3,600,193 (13.73 MB)\n\n\n\n Non-trainable params: 0 (0.00 B)\n\n\n\nNow, let’s train the model again for 20 epochs.\n\nmodel2.compile(optimizer='adam', loss='binary_crossentropy', metrics=['accuracy'])\n\nhist2 = model2.fit(train_ds, epo
…
),\n    layers.MaxPooling2D((2, 2)),\n\n\n    # Fully connected layers\n    layers.Flatten(),\n    layers.Dense(256, activation='relu'),\n    layers.Dropout(0.2),\n    layers.Dense(1, activation='sigmoid')  # Binary classification\n])\n\nmodel3.summary()\n\nModel: \"sequential_2\"\n\n\n\n┏━━━━━━━━━━━━━━━━━━━━━━━━━━━━━━━━━━━━━━┳━━━━━━━━━━━━━━━━━━━━━━━━━━━━━┳━━━━━━━━━━━━━━━━━┓\n┃ Layer (type)                         ┃ Output Shape                ┃         Param # ┃\n┡━━━━━━━━━━━━━━━━━━━━━━━━━━━━━━━━━━━━━━╇━━━━━━━━━━━━━━━━━━━━━━━━━━━━━╇━━━━━━━━━━━━━━━━━┩\n│ functional_2 (Functional)            │ (None, 150, 150, 3)         │               0 │\n├──────────────────────────────────────┼─────────────────────────────┼─────────────────┤\n│ random_flip_2 (RandomFlip)           │ (None, 150, 150, 3)         │               0 │\n├──────────────────────────────────────┼─────────────────────────────┼─────────────────┤\n│ random_rotation_2 (RandomRotation)   │ (None, 150, 150, 3)         │               0 │\n├──────────────────────────────────────┼─────────────────────────────┼─────────────────┤\n│ conv2d_7 (Conv2D)                    │ (None, 148, 148, 32)        │             896 │\n├──────────────────────────────────────┼─────────────────────────────┼─────────────────┤\n│ max_pooling2d_7 (MaxPooling2D)       │ (None, 74, 74, 32)          │               0 │\n├──────────────────────────────────────┼─────────────────────────────┼─────────────────┤\n│ conv2d_8 (Conv2D)                    │ (None, 72, 72, 64)          │          18,496 │\n├──────────────────────────────────────┼─────────────────────────────┼─────────────────┤\n│ max_pooling2d_8 (MaxPooling2D)       │ (None, 36, 36, 64)          │               0 │\n├──────────────────────────────────────┼─────────────────────────────┼─────────────────┤\n│ conv2d_9 (Conv2D)                    │ (None, 34, 34, 128)         │          73,856 │\n├──────────────────────────────────────┼─────────────────────────────┼─────────────────┤\n│ max_pooling2d_9 (MaxPooling2D)       │ (None, 17, 17, 128)         │               0 │\n├──────────────────────────────────────┼─────────────────────────────┼─────────────────┤\n│ conv2d_10 (Conv2D)                   │ (None, 15, 15, 256)         │         295,168 │\n├──────────────────────────────────────┼─────────────────────────────┼─────────────────┤\n│ max_pooling2d_10 (MaxPooling2D)      │ (None, 7, 7, 256)           │               0 │\n├──────────────────────────────────────┼─────────────────────────────┼─────────────────┤\n│ flatten_2 (Flatten)                  │ (None, 12544)               │               0 │\n├──────────────────────────────────────┼─────────────────────────────┼─────────────────┤\n│ dense_4 (Dense)                      │ (None, 256)                 │       3,211,520 │\n├──────────────────────────────────────┼─────────────────────────────┼─────────────────┤\n│ dropout_2 (Dropout)                  │ (None, 256)                 │               0 │\n├──────────────────────────────────────┼─────────────────────────────┼─────────────────┤\n│ dense_5 (Dense)                      │ (None, 1)                   │             257 │\n└──────────────────────────────────────┴─────────────────────────────┴─────────────────┘\n\n\n\n Total params: 3,600,193 (13.73 MB)\n\n\n\n Trainable params: 3,600,193 (13.73 MB)\n\n\n\n Non-trainable params: 0 (0.00 B)\n\n\n\n\nmodel3.compile(optimizer='adam', loss='binary_crossentropy', metrics=['accuracy'])\n\nhist3 = model3.fit(train_ds, epochs = 20, validation_data = validation_ds)\n\nEpo
…
tation(0.15),\n\n    # Base model (MobileNetV3Large)\n    base_model_layer,\n\n    # Additional layers\n    layers.GlobalMaxPooling2D(),\n    layers.Dropout(0.2),\n    layers.Dense(1, activation='sigmoid')  # Binary classification\n])\n\nmodel4.summary()\n\nModel: \"sequential_3\"\n\n\n\n┏━━━━━━━━━━━━━━━━━━━━━━━━━━━━━━━━━━━━━━┳━━━━━━━━━━━━━━━━━━━━━━━━━━━━━┳━━━━━━━━━━━━━━━━━┓\n┃ Layer (type)                         ┃ Output Shape                ┃         Param # ┃\n┡━━━━━━━━━━━━━━━━━━━━━━━━━━━━━━━━━━━━━━╇━━━━━━━━━━━━━━━━━━━━━━━━━━━━━╇━━━━━━━━━━━━━━━━━┩\n│ random_flip_3 (RandomFlip)           │ (None, 150, 150, 3)         │               0 │\n├──────────────────────────────────────┼─────────────────────────────┼─────────────────┤\n│ random_rotation_3 (RandomRotation)   │ (None, 150, 150, 3)         │               0 │\n├──────────────────────────────────────┼─────────────────────────────┼─────────────────┤\n│ functional_4 (Functional)            │ (None, 5, 5, 960)           │       2,996,352 │\n├──────────────────────────────────────┼─────────────────────────────┼─────────────────┤\n│ global_max_pooling2d                 │ (None, 960)                 │               0 │\n│ (GlobalMaxPooling2D)                 │                             │                 │\n├──────────────────────────────────────┼─────────────────────────────┼─────────────────┤\n│ dropout_3 (Dropout)                  │ (None, 960)                 │               0 │\n├──────────────────────────────────────┼─────────────────────────────┼─────────────────┤\n│ dense_6 (Dense)                      │ (None, 1)                   │             961 │\n└──────────────────────────────────────┴─────────────────────────────┴─────────────────┘\n\n\n\n Total params: 2,997,313 (11.43 MB)\n\n\n\n Trainable params: 961 (3.75 KB)\n\n\n\n Non-trainable params: 2,996,352 (11.43 MB)\n\n\n\nIn the summary of model 4, we notice that there are 2,996,352 non-trainable parameters, which are hidden in the base_model_layer. Therefore, we are only training 961 
…
